…
el.cfg  backup/GravLensModel_last.weights > /dev/null #2>&1 #../Arquitetura/darknet19_448.conv.23\n","#!./darknet detector train ../Arquitetura/obj.data ../Arquitetura/yolo-obj.cfg   > /dev/null #2>&1 #../Arquitetura/darknet19_448.conv.23\n","\n","#!cat ../lixo.dat |grep \"avg loss\" > lixo1.dat\n","#!head lixo1.dat\n","#!rm ../lixo.dat"],"execution_count":9,"outputs":[{"output_type":"stream","text":["[Errno 20] Not a directory: 'darknet'\n","/content/drive/My Drive/deep learning apps/YOLODARKNET/darknet\n","3.2.0\n","layer     filters    size              input                output\n","   0 conv     16  3 x 3 / 1   416 x 416 x   3   ->   416 x 416 x  16 0.150 BF\n","   1 max          2 x 2 / 2   416 x 416 x  16   ->   208 x 208 x  16 0.003 BF\n","   2 conv     32  3 x 3 / 1   208 x 208 x  16   ->   208 x 208 x  32 0.399 BF\n","   3 max          2 x 2 / 2   208 x 208 x  32   ->   104 x 104 x  32 0.001 BF\n","   4 conv     64  3 x 3 / 1   104 x 104 x  32   ->   104 x 104 x  64 0.399 BF\n","   5 max          2 x 2 / 2   104 x 104 x  64   ->    52 x  52 x  64 0.001 BF\n","   6 conv    128  3 x 3 / 1    52 x  52 x  64   ->    52 x  52 x 128 0.399 BF\n","   7 max          2 x 2 / 2    52 x  52 x 128   ->    26 x  26 x 128 0.000 BF\n","   8 conv    256  3 x 3 / 1    26 x  26 x 128   ->    26 x  26 x 256 0.399 BF\n","   9 max          2 x 2 / 2    26 x  26 x 256   ->    13 x  13 x 256 0.000 BF\n","  10 conv    512  3 x 3 / 1    13 x  13 x 256   ->    13 x  13 x 512 0.399 BF\n","  11 max          2 x 2 / 1    13 x  13 x 512   ->    13 x  13 x 512 0.000 BF\n","  12 conv   1024  3 x 3 / 1    13 x  13 x 512   ->    13 x  13 x1024 1.595 BF\n","  13 conv   1024  3 x 3 / 1    13 x  13 x1024   ->    13 x  13 x1024 3.190 BF\n","  14 conv     30  1 x 1 / 1    13 x  13 x1024   ->    13 x  13 x  30 0.010 BF\n","  15 detection\n","mask_scale: Using default '1.000000'\n","Total BFLOPS 6.944 \n"," Allocate additional workspace_size = 24.92 MB \n","Loading weights from backup/GravLensModel_last.weights...Done!\n","Saving weights to backup//GravLensModel_1000.weights\n","Saving weights to backup//GravLensModel_last.weights\n","Saving weights to backup//Gr
…
